…
ning_rate=0.0005, levels=3, loss='mse', lradj='type3', model='FITS', model_id='Weather_360_j96_H12', moving_avg=25, n_heads=8, num_workers=4, output_attention=False, patience=3, pred_len=96, root_path='./dataset/', seed=2021, seq_len=360, stacks=1, target='OT', test_flop=False, test_time_train=False, testset_div=2, train_epochs=100, train_mode=1, use_amp=False, use_gpu=True, use_multi_gpu=False)
Use GPU: cuda:0
>>>>>>>start training : Weather_360_j96_H12_FITS_custom_ftM_sl360_ll48_pl96_H12_0>>>>>>>>>>>>>>>>>>>>>>>>>>
train 36432
val 5175
test 10444
Model(
  (freq_upsampler): ModuleList(
    (0): Linear(in_features=46, out_features=58, bias=True)
    (1): Linear(in_features=46, out_features=58, bias=True)
    (2): Linear(in_features=46, out_features=58, bias=True)
    (3): Linear(in_features=46, out_features=58, bias=True)
    (4): Linear(in_features=46, out_features=58, bias=True)
    (5): Linear(in_features=46, out_features=58, bias=True)
    (6): Linear(in_features=46, out_features=58, bias=True)
    (7): Linear(in_features=46, out_features=58, bias=True)
    (8): Linear(in_features=46, out_features=58, bias=True)
    (9): Linear(in_features=46, out_features=58, bias=True)
    (10): Linear(in_features=46, out_features=58, bias=True)
    (11): Linear(in_features=46, out_features=58, bias=True)
    (12): Linear(in_features=46, out_features=58, bias=True)
    (13): Linear(in_features=46, out_features=58, bias=True)
    (14): Linear(in_features=46, out_features=58, bias=True)
    (15): Linear(in_features=46, out_features=58, bias=True)
    (16): Linear(in_features=46, out_features=58, bias=True)
    (17): Linear(in_features=46, out_features=58, bias=True)
    (18): Linear(in_features=46, out_features=58, bias=True)
    (19): Linear(in_features=46, out_features=58, bias=True)
    (20): Linear(in_features=46, out_features=58, bias=True)
  )
)
[INFO] Register count_linear() for <class 'torch.nn.modules.linear.Linear'>.
FLOPs:  3585792.0
params:  57246.0
Trainable parameters:  57246
!!!!!!!!!!!!!!learning rate!!!!!!!!!!!!!!!
0.0005
	iters: 100, epoch: 1 | loss: 0.4459128
	speed: 0.8728s/iter; left time: 49578.3459s
	iters: 200, epoch: 1 | loss: 0.4032361
	speed: 0.8493s/iter; left time: 48157.4906s
…
