…
learning_rate=0.0005, levels=3, loss='mse', lradj='type3', model='FITS', model_id='Weather_90_j96_H12', moving_avg=25, n_heads=8, num_workers=4, output_attention=False, patience=3, pred_len=96, root_path='./dataset/', seed=2021, seq_len=90, stacks=1, target='OT', test_flop=False, test_time_train=False, testset_div=2, train_epochs=100, train_mode=1, use_amp=False, use_gpu=True, use_multi_gpu=False)
Use GPU: cuda:0
>>>>>>>start training : Weather_90_j96_H12_FITS_custom_ftM_sl90_ll48_pl96_H12_0>>>>>>>>>>>>>>>>>>>>>>>>>>
train 36702
val 5175
test 10444
Model(
  (freq_upsampler): ModuleList(
    (0): Linear(in_features=22, out_features=45, bias=True)
    (1): Linear(in_features=22, out_features=45, bias=True)
    (2): Linear(in_features=22, out_features=45, bias=True)
    (3): Linear(in_features=22, out_features=45, bias=True)
    (4): Linear(in_features=22, out_features=45, bias=True)
    (5): Linear(in_features=22, out_features=45, bias=True)
    (6): Linear(in_features=22, out_features=45, bias=True)
    (7): Linear(in_features=22, out_features=45, bias=True)
    (8): Linear(in_features=22, out_features=45, bias=True)
    (9): Linear(in_features=22, out_features=45, bias=True)
    (10): Linear(in_features=22, out_features=45, bias=True)
    (11): Linear(in_features=22, out_features=45, bias=True)
    (12): Linear(in_features=22, out_features=45, bias=True)
    (13): Linear(in_features=22, out_features=45, bias=True)
    (14): Linear(in_features=22, out_features=45, bias=True)
    (15): Linear(in_features=22, out_features=45, bias=True)
    (16): Linear(in_features=22, out_features=45, bias=True)
    (17): Linear(in_features=22, out_features=45, bias=True)
    (18): Linear(in_features=22, out_features=45, bias=True)
    (19): Linear(in_features=22, out_features=45, bias=True)
    (20): Linear(in_features=22, out_features=45, bias=True)
  )
)
[INFO] Register count_linear() for <class 'torch.nn.modules.linear.Linear'>.
FLOPs:  1330560.0
params:  21735.0
Trainable parameters:  21735
!!!!!!!!!!!!!!learning rate!!!!!!!!!!!!!!!
0.0005
	iters: 100, epoch: 1 | loss: 0.5370481
	speed: 0.4176s/iter; left time: 23888.3855s
	iters: 200, epoch: 1 | loss: 0.4346518
	speed: 0.3982s/iter; left time: 22740.0167s
…
