…
g_rate=0.0005, levels=3, loss='mse', lradj='type3', model='FITS', model_id='Weather_180_j720_H10', moving_avg=25, n_heads=8, num_workers=4, output_attention=False, patience=3, pred_len=720, root_path='./dataset/', seed=2021, seq_len=180, stacks=1, target='OT', test_flop=False, test_time_train=False, testset_div=2, train_epochs=100, train_mode=1, use_amp=False, use_gpu=True, use_multi_gpu=False)
Use GPU: cuda:0
>>>>>>>start training : Weather_180_j720_H10_FITS_custom_ftM_sl180_ll48_pl720_H10_0>>>>>>>>>>>>>>>>>>>>>>>>>>
train 35988
val 4551
test 9820
Model(
  (freq_upsampler): ModuleList(
    (0): Linear(in_features=30, out_features=150, bias=True)
    (1): Linear(in_features=30, out_features=150, bias=True)
    (2): Linear(in_features=30, out_features=150, bias=True)
    (3): Linear(in_features=30, out_features=150, bias=True)
    (4): Linear(in_features=30, out_features=150, bias=True)
    (5): Linear(in_features=30, out_features=150, bias=True)
    (6): Linear(in_features=30, out_features=150, bias=True)
    (7): Linear(in_features=30, out_features=150, bias=True)
    (8): Linear(in_features=30, out_features=150, bias=True)
    (9): Linear(in_features=30, out_features=150, bias=True)
    (10): Linear(in_features=30, out_features=150, bias=True)
    (11): Linear(in_features=30, out_features=150, bias=True)
    (12): Linear(in_features=30, out_features=150, bias=True)
    (13): Linear(in_features=30, out_features=150, bias=True)
    (14): Linear(in_features=30, out_features=150, bias=True)
    (15): Linear(in_features=30, out_features=150, bias=True)
    (16): Linear(in_features=30, out_features=150, bias=True)
    (17): Linear(in_features=30, out_features=150, bias=True)
    (18): Linear(in_features=30, out_features=150, bias=True)
    (19): Linear(in_features=30, out_features=150, bias=True)
    (20): Linear(in_features=30, out_features=150, bias=True)
  )
)
[INFO] Register count_linear() for <class 'torch.nn.modules.linear.Linear'>.
FLOPs:  6048000.0
params:  97650.0
Trainable parameters:  97650
!!!!!!!!!!!!!!learning rate!!!!!!!!!!!!!!!
0.0005
	iters: 100, epoch: 1 | loss: 1.1692661
	speed: 0.0366s/iter; left time: 2052.5364s
	iters: 200, epoch: 1 | loss: 0.7361374
	speed: 0.0297s/iter; left time: 1663.4786s
…
