…
_rate=0.0005, levels=3, loss='mse', lradj='type3', model='FITS', model_id='Weather_180_j336_H12', moving_avg=25, n_heads=8, num_workers=4, output_attention=False, patience=3, pred_len=336, root_path='./dataset/', seed=2021, seq_len=180, stacks=1, target='OT', test_flop=False, test_time_train=False, testset_div=2, train_epochs=100, train_mode=2, use_amp=False, use_gpu=True, use_multi_gpu=False)
Use GPU: cuda:0
>>>>>>>start training : Weather_180_j336_H12_FITS_custom_ftM_sl180_ll48_pl336_H12_0>>>>>>>>>>>>>>>>>>>>>>>>>>
train 36372
val 4935
test 10204
Model(
  (freq_upsampler): ModuleList(
    (0): Linear(in_features=34, out_features=97, bias=True)
    (1): Linear(in_features=34, out_features=97, bias=True)
    (2): Linear(in_features=34, out_features=97, bias=True)
    (3): Linear(in_features=34, out_features=97, bias=True)
    (4): Linear(in_features=34, out_features=97, bias=True)
    (5): Linear(in_features=34, out_features=97, bias=True)
    (6): Linear(in_features=34, out_features=97, bias=True)
    (7): Linear(in_features=34, out_features=97, bias=True)
    (8): Linear(in_features=34, out_features=97, bias=True)
    (9): Linear(in_features=34, out_features=97, bias=True)
    (10): Linear(in_features=34, out_features=97, bias=True)
    (11): Linear(in_features=34, out_features=97, bias=True)
    (12): Linear(in_features=34, out_features=97, bias=True)
    (13): Linear(in_features=34, out_features=97, bias=True)
    (14): Linear(in_features=34, out_features=97, bias=True)
    (15): Linear(in_features=34, out_features=97, bias=True)
    (16): Linear(in_features=34, out_features=97, bias=True)
    (17): Linear(in_features=34, out_features=97, bias=True)
    (18): Linear(in_features=34, out_features=97, bias=True)
    (19): Linear(in_features=34, out_features=97, bias=True)
    (20): Linear(in_features=34, out_features=97, bias=True)
  )
)
[INFO] Register count_linear() for <class 'torch.nn.modules.linear.Linear'>.
FLOPs:  4432512.0
params:  71295.0
Trainable parameters:  71295
!!!!!!!!!!!!!!learning rate!!!!!!!!!!!!!!!
0.0005
	iters: 100, epoch: 1 | loss: 0.6276423
	speed: 0.5776s/iter; left time: 32750.1073s
	iters: 200, epoch: 1 | loss: 0.5523866
	speed: 0.5920s/iter; left time: 33508.6027s
…
