…
_rate=0.0005, levels=3, loss='mse', lradj='type3', model='FITS', model_id='Weather_720_j336_H10', moving_avg=25, n_heads=8, num_workers=10, output_attention=False, patience=3, pred_len=336, root_path='./dataset/', seed=2021, seq_len=720, stacks=1, target='OT', test_flop=False, test_time_train=False, testset_div=2, train_epochs=50, train_mode=1, use_amp=False, use_gpu=True, use_multi_gpu=False)
Use GPU: cuda:3
>>>>>>>start training : Weather_720_j336_H10_FITS_custom_ftM_sl720_ll48_pl336_H10_0>>>>>>>>>>>>>>>>>>>>>>>>>>
train 35832
val 4935
test 10204
Model(
  (freq_upsampler): ModuleList(
    (0): Linear(in_features=70, out_features=102, bias=True)
    (1): Linear(in_features=70, out_features=102, bias=True)
    (2): Linear(in_features=70, out_features=102, bias=True)
    (3): Linear(in_features=70, out_features=102, bias=True)
    (4): Linear(in_features=70, out_features=102, bias=True)
    (5): Linear(in_features=70, out_features=102, bias=True)
    (6): Linear(in_features=70, out_features=102, bias=True)
    (7): Linear(in_features=70, out_features=102, bias=True)
    (8): Linear(in_features=70, out_features=102, bias=True)
    (9): Linear(in_features=70, out_features=102, bias=True)
    (10): Linear(in_features=70, out_features=102, bias=True)
    (11): Linear(in_features=70, out_features=102, bias=True)
    (12): Linear(in_features=70, out_features=102, bias=True)
    (13): Linear(in_features=70, out_features=102, bias=True)
    (14): Linear(in_features=70, out_features=102, bias=True)
    (15): Linear(in_features=70, out_features=102, bias=True)
    (16): Linear(in_features=70, out_features=102, bias=True)
    (17): Linear(in_features=70, out_features=102, bias=True)
    (18): Linear(in_features=70, out_features=102, bias=True)
    (19): Linear(in_features=70, out_features=102, bias=True)
    (20): Linear(in_features=70, out_features=102, bias=True)
  )
)
[INFO] Register count_linear() for <class 'torch.nn.modules.linear.Linear'>.
FLOPs:  38384640.0
params:  152082.0
Trainable parameters:  152082
!!!!!!!!!!!!!!learning rate!!!!!!!!!!!!!!!
0.0005
	iters: 100, epoch: 1 | loss: 0.5734915
	speed: 0.1689s/iter; left time: 1157.2851s
Epoch: 1 cost time: 23.19189167022705
Epoch: 1, Steps: 139 | Train Loss: 0.7167589 Vali Loss: 0.6006040 Test Loss: 0.2816883
…
