…
g_rate=0.0005, levels=3, loss='mse', lradj='type3', model='FITS', model_id='Weather_720_j720_H10', moving_avg=25, n_heads=8, num_workers=10, output_attention=False, patience=3, pred_len=720, root_path='./dataset/', seed=2021, seq_len=720, stacks=1, target='OT', test_flop=False, test_time_train=False, testset_div=2, train_epochs=50, train_mode=1, use_amp=False, use_gpu=True, use_multi_gpu=False)
Use GPU: cuda:3
>>>>>>>start training : Weather_720_j720_H10_FITS_custom_ftM_sl720_ll48_pl720_H10_0>>>>>>>>>>>>>>>>>>>>>>>>>>
train 35448
val 4551
test 9820
Model(
  (freq_upsampler): ModuleList(
    (0): Linear(in_features=70, out_features=140, bias=True)
    (1): Linear(in_features=70, out_features=140, bias=True)
    (2): Linear(in_features=70, out_features=140, bias=True)
    (3): Linear(in_features=70, out_features=140, bias=True)
    (4): Linear(in_features=70, out_features=140, bias=True)
    (5): Linear(in_features=70, out_features=140, bias=True)
    (6): Linear(in_features=70, out_features=140, bias=True)
    (7): Linear(in_features=70, out_features=140, bias=True)
    (8): Linear(in_features=70, out_features=140, bias=True)
    (9): Linear(in_features=70, out_features=140, bias=True)
    (10): Linear(in_features=70, out_features=140, bias=True)
    (11): Linear(in_features=70, out_features=140, bias=True)
    (12): Linear(in_features=70, out_features=140, bias=True)
    (13): Linear(in_features=70, out_features=140, bias=True)
    (14): Linear(in_features=70, out_features=140, bias=True)
    (15): Linear(in_features=70, out_features=140, bias=True)
    (16): Linear(in_features=70, out_features=140, bias=True)
    (17): Linear(in_features=70, out_features=140, bias=True)
    (18): Linear(in_features=70, out_features=140, bias=True)
    (19): Linear(in_features=70, out_features=140, bias=True)
    (20): Linear(in_features=70, out_features=140, bias=True)
  )
)
[INFO] Register count_linear() for <class 'torch.nn.modules.linear.Linear'>.
FLOPs:  26342400.0
params:  208740.0
Trainable parameters:  208740
!!!!!!!!!!!!!!learning rate!!!!!!!!!!!!!!!
0.0005
	iters: 100, epoch: 1 | loss: 0.7079589
	speed: 0.1582s/iter; left time: 2167.9011s
	iters: 200, epoch: 1 | loss: 0.6340499
	speed: 0.1501s/iter; left time: 2041.6492s
…
